Building model module ...
Continue from epoch 0...
... successfully built checkpoint module !
Building loss module ...
... adding MSE loss with weight=10.000000 and input type=HR
... adding L1 loss with weight=1.000000 and input type=LR
... successfully built loss module !
Building model module ...
AETAD_3D(
  (_downscaling): Sequential(
    (0): Conv2d(3, 8, kernel_size=(3, 3), stride=(1, 1), padding=(1, 1))
    (1): Conv2d(8, 16, kernel_size=(3, 3), stride=(1, 1), padding=(1, 1))
    (2): _ReversePixelShuffle_(downscale_factor=2)
  )
  (_res_en1): _Resblock_(
    channels=64
    (filter_block): Sequential(
      (0): Conv2d(64, 64, kernel_size=(3, 3), stride=(1, 1), padding=(1, 1))
      (1): ReLU(inplace)
      (2): Conv2d(64, 64, kernel_size=(3, 3), stride=(1, 1), padding=(1, 1))
    )
  )
  (_res_en2): _Resblock_(
    channels=64
    (filter_block): Sequential(
      (0): Conv2d(64, 64, kernel_size=(3, 3), stride=(1, 1), padding=(1, 1))
      (1): ReLU(inplace)
      (2): Conv2d(64, 64, kernel_size=(3, 3), stride=(1, 1), padding=(1, 1))
    )
  )
  (_res_en3): _Resblock_(
    channels=64
    (filter_block): Sequential(
      (0): Conv2d(64, 64, kernel_size=(3, 3), stride=(1, 1), padding=(1, 1))
      (1): ReLU(inplace)
      (2): Conv2d(64, 64, kernel_size=(3, 3), stride=(1, 1), padding=(1, 1))
    )
  )
  (_conv_en1): Conv2d(64, 64, kernel_size=(3, 3), stride=(1, 1), padding=(1, 1))
  (_conv_en2): Conv2d(64, 3, kernel_size=(3, 3), stride=(1, 1), padding=(1, 1))
  (_conv_de1): Conv2d(3, 64, kernel_size=(3, 3), stride=(1, 1), padding=(1, 1))
  (_res_de1): _Resblock_(
    channels=64
    (filter_block): Sequential(
      (0): Conv2d(64, 64, kernel_size=(3, 3), stride=(1, 1), padding=(1, 1))
      (1): ReLU(inplace)
      (2): Conv2d(64, 64, kernel_size=(3, 3), stride=(1, 1), padding=(1, 1))
    )
  )
  (_res_de2): _Resblock_(
    channels=64
    (filter_block): Sequential(
      (0): Conv2d(64, 64, kernel_size=(3, 3), stride=(1, 1), padding=(1, 1))
      (1): ReLU(inplace)
      (2): Conv2d(64, 64, kernel_size=(3, 3), stride=(1, 1), padding=(1, 1))
    )
  )
  (_res_de3): _Resblock_(
    channels=64
    (filter_block): Sequential(
      (0): Conv2d(64, 64, kernel_size=(3, 3), stride=(1, 1), padding=(1, 1))
      (1): ReLU(inplace)
      (2): Conv2d(64, 64, kernel_size=(3, 3), stride=(1, 1), padding=(1, 1))
    )
  )
  (_conv_de2): Conv2d(64, 64, kernel_size=(3, 3), stride=(1, 1), padding=(1, 1))
  (_upscaling): Sequential(
    (0): Conv2d(64, 256, kernel_size=(3, 3), stride=(1, 1), padding=(1, 1))
    (1): PixelShuffle(upscale_factor=2)
    (2): Conv2d(64, 3, kernel_size=(3, 3), stride=(1, 1), padding=(1, 1))
  )
)
... successfully built model module !
Machine: GeForce GTX TITAN X
[Epoch 1]	Learning rate: 0.0001	Finetuning: False
[160/699]	[HR-MSE: 1.3474][LR-L1: 0.1495][TOTAL: 1.4970]	1.2+26.7s
[320/699]	[HR-MSE: 0.8155][LR-L1: 0.1239][TOTAL: 0.9394]	1.1+24.9s
[480/699]	[HR-MSE: 0.5968][LR-L1: 0.1009][TOTAL: 0.6977]	1.2+12.2s
[640/699]	[HR-MSE: 0.4785][LR-L1: 0.0839][TOTAL: 0.5623]	1.0+23.0s
…
[480/699]	[HR-MSE: 0.0053][LR-L1: 0.0016][TOTAL: 0.0069]	1.1+11.4s
[640/699]	[HR-MSE: 0.0051][LR-L1: 0.0016][TOTAL: 0.0067]	0.8+21.6s

Evaluation 236 (saving_results=False) ...

LR	[DIV2K x2]	PSNR: 59.610 (Best: 72.728 @epoch 75)
HR	[DIV2K x2]	PSNR: 38.567 (Best: 42.402 @epoch 119)
Mean network applying time: 24.17ms
Saving states ...
Testing Total: 24.30s

Building model module ...
... continue from epoch 236...
... successfully built checkpoint module !
Building model module ...
... loaded model from /scratch_net/biwidl215/sischaef/tar/models/tad_working_well/model/model_best.pt
AETRIAL_1D_NOSR(
  (_encode_seq): Sequential(
    (0): Conv2d(1, 16, kernel_size=(3, 3), stride=(3, 3), padding=(1, 1))
    (1): ReLU(inplace)
    (2): MaxPool2d(kernel_size=2, stride=2, padding=0, dilation=1, ceil_mode=False)
    (3): Conv2d(16, 8, kernel_size=(3, 3), stride=(2, 2), padding=(1, 1))
    (4): ReLU(inplace)
    (5): MaxPool2d(kernel_size=2, stride=1, padding=0, dilation=1, ceil_mode=False)
  )
  (_decode_seq): Sequential(
    (0): ConvTranspose2d(8, 16, kernel_size=(3, 3), stride=(2, 2))
    (1): ReLU(inplace)
    (2): ConvTranspose2d(16, 8, kernel_size=(5, 5), stride=(3, 3), padding=(1, 1))
    (3): ReLU(inplace)
    (4): ConvTranspose2d(8, 1, kernel_size=(2, 2), stride=(2, 2), padding=(1, 1))
    (5): Tanh()
  )
)
... successfully built model module !
Building model module ...
... continue from epoch 236...
... successfully built checkpoint module !
Building model module ...
... loaded model from /scratch_net/biwidl215/sischaef/tar/models/tad_working_well/model/model_best.pt
AETAD_3D(
  (_downscaling): Sequential(
    (0): Conv2d(3, 8, kernel_size=(3, 3), stride=(1, 1), padding=(1, 1))
    (1): Conv2d(8, 16, kernel_size=(3, 3), stride=(1, 1), padding=(1, 1))
    (2): _ReversePixelShuffle_(downscale_factor=2)
  )
  (_res_en1): _Resblock_(
    channels=64
    (filter_block): Sequential(
      (0): Conv2d(64, 64, kernel_size=(3, 3), stride=(1, 1), padding=(1, 1))
      (1): ReLU(inplace)
      (2): Conv2d(64, 64, kernel_size=(3, 3), stride=(1, 1), padding=(1, 1))
    )
  )
  (_res_en2): _Resblock_(
    channels=64
    (filter_block): Sequential(
      (0): Conv2d(64, 64, kernel_size=(3, 3), stride=(1, 1), padding=(1, 1))
      (1): ReLU(inplace)
      (2): Conv2d(64, 64, kernel_size=(3, 3), stride=(1, 1), padding=(1, 1))
    )
  )
  (_res_en3): _Resblock_(
    channels=64
    (filter_block): Sequential(
      (0): Conv2d(64, 64, kernel_size=(3, 3), stride=(1, 1), padding=(1, 1))
      (1): ReLU(inplace)
      (2): Conv2d(64, 64, kernel_size=(3, 3), stride=(1, 1), padding=(1, 1))
    )
  )
  (_conv_en1): Conv2d(64, 64, kernel_size=(3, 3), stride=(1, 1), padding=(1, 1))
  (_conv_en2): Conv2d(64, 3, kernel_size=(3, 3), stride=(1, 1), padding=(1, 1))
  (_conv_de1): Conv2d(3, 64, kernel_size=(3, 3), stride=(1, 1), padding=(1, 1))
  (_res_de1): _Resblock_(
    channels=64
    (filter_block): Sequential(
      (0): Conv2d(64, 64, kernel_size=(3, 3), stride=(1, 1), padding=(1, 1))
      (1): ReLU(inplace)
      (2): Conv2d(64, 64, kernel_size=(3, 3), stride=(1, 1), padding=(1, 1))
    )
  )
  (_res_de2): _Resblock_(
    channels=64
    (filter_block): Sequential(
      (0): Conv2d(64, 64, kernel_size=(3, 3), stride=(1, 1), padding=(1, 1))
      (1): ReLU(inplace)
      (2): Conv2d(64, 64, kernel_size=(3, 3), stride=(1, 1), padding=(1, 1))
    )
  )
  (_res_de3): _Resblock_(
    channels=64
    (filter_block): Sequential(
      (0): Conv2d(64, 64, kernel_size=(3, 3), stride=(1, 1), padding=(1, 1))
      (1): ReLU(inplace)
      (2): Conv2d(64, 64, kernel_size=(3, 3), stride=(1, 1), padding=(1, 1))
    )
  )
  (_conv_de2): Conv2d(64, 64, kernel_size=(3, 3), stride=(1, 1), padding=(1, 1))
  (_upscaling): Sequential(
    (0): Conv2d(64, 256, kernel_size=(3, 3), stride=(1, 1), padding=(1, 1))
    (1): PixelShuffle(upscale_factor=2)
    (2): Conv2d(64, 3, kernel_size=(3, 3), stride=(1, 1), padding=(1, 1))
  )
)
... successfully built model module !
Machine: GeForce GTX TITAN X
xxxxxxxxxxxxxxxxxxxxxxxxxxxxxxxxxxxxxxxxxxxxxxxxxx
Validating model ...

URBAN100x2

SET5x2

SET14x2

BSDS100x2
Building model module ...
... continue from epoch 236...
... successfully built checkpoint module !
Building model module ...
... loaded model from /scratch_net/biwidl215/sischaef/tar/models/tad_working_well/model/model_best.pt
AETAD_3D(
  (_downscaling): Sequential(
    (0): Conv2d(3, 8, kernel_size=(3, 3), stride=(1, 1), padding=(1, 1))
    (1): Conv2d(8, 16, kernel_size=(3, 3), stride=(1, 1), padding=(1, 1))
    (2): _ReversePixelShuffle_(downscale_factor=2)
  )
  (_res_en1): _Resblock_(
    channels=64
    (filter_block): Sequential(
      (0): Conv2d(64, 64, kernel_size=(3, 3), stride=(1, 1), padding=(1, 1))
      (1): ReLU(inplace)
      (2): Conv2d(64, 64, kernel_size=(3, 3), stride=(1, 1), padding=(1, 1))
    )
  )
  (_res_en2): _Resblock_(
    channels=64
    (filter_block): Sequential(
      (0): Conv2d(64, 64, kernel_size=(3, 3), stride=(1, 1), padding=(1, 1))
      (1): ReLU(inplace)
      (2): Conv2d(64, 64, kernel_size=(3, 3), stride=(1, 1), padding=(1, 1))
    )
  )
  (_res_en3): _Resblock_(
    channels=64
    (filter_block): Sequential(
      (0): Conv2d(64, 64, kernel_size=(3, 3), stride=(1, 1), padding=(1, 1))
      (1): ReLU(inplace)
      (2): Conv2d(64, 64, kernel_size=(3, 3), stride=(1, 1), padding=(1, 1))
    )
  )
  (_conv_en1): Conv2d(64, 64, kernel_size=(3, 3), stride=(1, 1), padding=(1, 1))
  (_conv_en2): Conv2d(64, 3, kernel_size=(3, 3), stride=(1, 1), padding=(1, 1))
  (_conv_de1): Conv2d(3, 64, kernel_size=(3, 3), stride=(1, 1), padding=(1, 1))
  (_res_de1): _Resblock_(
    channels=64
    (filter_block): Sequential(
      (0): Conv2d(64, 64, kernel_size=(3, 3), stride=(1, 1), padding=(1, 1))
      (1): ReLU(inplace)
      (2): Conv2d(64, 64, kernel_size=(3, 3), stride=(1, 1), padding=(1, 1))
    )
  )
  (_res_de2): _Resblock_(
    channels=64
    (filter_block): Sequential(
      (0): Conv2d(64, 64, kernel_size=(3, 3), stride=(1, 1), padding=(1, 1))
      (1): ReLU(inplace)
      (2): Conv2d(64, 64, kernel_size=(3, 3), stride=(1, 1), padding=(1, 1))
    )
  )
  (_res_de3): _Resblock_(
    channels=64
    (filter_block): Sequential(
      (0): Conv2d(64, 64, kernel_size=(3, 3), stride=(1, 1), padding=(1, 1))
      (1): ReLU(inplace)
      (2): Conv2d(64, 64, kernel_size=(3, 3), stride=(1, 1), padding=(1, 1))
    )
  )
  (_conv_de2): Conv2d(64, 64, kernel_size=(3, 3), stride=(1, 1), padding=(1, 1))
  (_upscaling): Sequential(
    (0): Conv2d(64, 256, kernel_size=(3, 3), stride=(1, 1), padding=(1, 1))
    (1): PixelShuffle(upscale_factor=2)
    (2): Conv2d(64, 3, kernel_size=(3, 3), stride=(1, 1), padding=(1, 1))
  )
)
... successfully built model module !
Machine: Tesla K40c
xxxxxxxxxxxxxxxxxxxxxxxxxxxxxxxxxxxxxxxxxxxxxxxxxx
Validating model ...

URBAN100x2

SET5x2

SET14x2

BSDS100x2
Building model module ...
... continue from epoch 236...
... successfully built checkpoint module !
Building model module ...
... loaded model from /scratch_net/biwidl215/sischaef/tar/models/tad_working_well/model/model_best.pt
AETAD_3D(
  (_downscaling): Sequential(
    (0): Conv2d(3, 8, kernel_size=(3, 3), stride=(1, 1), padding=(1, 1))
    (1): Conv2d(8, 16, kernel_size=(3, 3), stride=(1, 1), padding=(1, 1))
    (2): _ReversePixelShuffle_(downscale_factor=2)
  )
  (_res_en1): _Resblock_(
    channels=64
    (filter_block): Sequential(
      (0): Conv2d(64, 64, kernel_size=(3, 3), stride=(1, 1), padding=(1, 1))
      (1): ReLU(inplace)
      (2): Conv2d(64, 64, kernel_size=(3, 3), stride=(1, 1), padding=(1, 1))
    )
  )
  (_res_en2): _Resblock_(
    channels=64
    (filter_block): Sequential(
      (0): Conv2d(64, 64, kernel_size=(3, 3), stride=(1, 1), padding=(1, 1))
      (1): ReLU(inplace)
      (2): Conv2d(64, 64, kernel_size=(3, 3), stride=(1, 1), padding=(1, 1))
    )
  )
  (_res_en3): _Resblock_(
    channels=64
    (filter_block): Sequential(
      (0): Conv2d(64, 64, kernel_size=(3, 3), stride=(1, 1), padding=(1, 1))
      (1): ReLU(inplace)
      (2): Conv2d(64, 64, kernel_size=(3, 3), stride=(1, 1), padding=(1, 1))
    )
  )
  (_conv_en1): Conv2d(64, 64, kernel_size=(3, 3), stride=(1, 1), padding=(1, 1))
  (_conv_en2): Conv2d(64, 3, kernel_size=(3, 3), stride=(1, 1), padding=(1, 1))
  (_conv_de1): Conv2d(3, 64, kernel_size=(3, 3), stride=(1, 1), padding=(1, 1))
  (_res_de1): _Resblock_(
    channels=64
    (filter_block): Sequential(
      (0): Conv2d(64, 64, kernel_size=(3, 3), stride=(1, 1), padding=(1, 1))
      (1): ReLU(inplace)
      (2): Conv2d(64, 64, kernel_size=(3, 3), stride=(1, 1), padding=(1, 1))
    )
  )
  (_res_de2): _Resblock_(
    channels=64
    (filter_block): Sequential(
      (0): Conv2d(64, 64, kernel_size=(3, 3), stride=(1, 1), padding=(1, 1))
      (1): ReLU(inplace)
      (2): Conv2d(64, 64, kernel_size=(3, 3), stride=(1, 1), padding=(1, 1))
    )
  )
  (_res_de3): _Resblock_(
    channels=64
    (filter_block): Sequential(
      (0): Conv2d(64, 64, kernel_size=(3, 3), stride=(1, 1), padding=(1, 1))
      (1): ReLU(inplace)
      (2): Conv2d(64, 64, kernel_size=(3, 3), stride=(1, 1), padding=(1, 1))
    )
  )
  (_conv_de2): Conv2d(64, 64, kernel_size=(3, 3), stride=(1, 1), padding=(1, 1))
  (_upscaling): Sequential(
    (0): Conv2d(64, 256, kernel_size=(3, 3), stride=(1, 1), padding=(1, 1))
    (1): PixelShuffle(upscale_factor=2)
    (2): Conv2d(64, 3, kernel_size=(3, 3), stride=(1, 1), padding=(1, 1))
  )
)
... successfully built model module !
Machine: Tesla K40c
xxxxxxxxxxxxxxxxxxxxxxxxxxxxxxxxxxxxxxxxxxxxxxxxxx
Validating model ...

URBAN100x2

SET5x2

SET14x2

BSDS100x2
Building model module ...
... continue from epoch 236...
... successfully built checkpoint module !
Building model module ...
... loaded model from /scratch_net/biwidl215/sischaef/tar/models/tad_working_well/model/model_best.pt
AETAD_3D(
  (_downscaling): Sequential(
    (0): Conv2d(3, 8, kernel_size=(3, 3), stride=(1, 1), padding=(1, 1))
    (1): Conv2d(8, 16, kernel_size=(3, 3), stride=(1, 1), padding=(1, 1))
    (2): _ReversePixelShuffle_(downscale_factor=2)
  )
  (_res_en1): _Resblock_(
    channels=64
    (filter_block): Sequential(
      (0): Conv2d(64, 64, kernel_size=(3, 3), stride=(1, 1), padding=(1, 1))
      (1): ReLU(inplace)
      (2): Conv2d(64, 64, kernel_size=(3, 3), stride=(1, 1), padding=(1, 1))
    )
  )
  (_res_en2): _Resblock_(
    channels=64
    (filter_block): Sequential(
      (0): Conv2d(64, 64, kernel_size=(3, 3), stride=(1, 1), padding=(1, 1))
      (1): ReLU(inplace)
      (2): Conv2d(64, 64, kernel_size=(3, 3), stride=(1, 1), padding=(1, 1))
    )
  )
  (_res_en3): _Resblock_(
    channels=64
    (filter_block): Sequential(
      (0): Conv2d(64, 64, kernel_size=(3, 3), stride=(1, 1), padding=(1, 1))
      (1): ReLU(inplace)
      (2): Conv2d(64, 64, kernel_size=(3, 3), stride=(1, 1), padding=(1, 1))
    )
  )
  (_conv_en1): Conv2d(64, 64, kernel_size=(3, 3), stride=(1, 1), padding=(1, 1))
  (_conv_en2): Conv2d(64, 3, kernel_size=(3, 3), stride=(1, 1), padding=(1, 1))
  (_conv_de1): Conv2d(3, 64, kernel_size=(3, 3), stride=(1, 1), padding=(1, 1))
  (_res_de1): _Resblock_(
    channels=64
    (filter_block): Sequential(
      (0): Conv2d(64, 64, kernel_size=(3, 3), stride=(1, 1), padding=(1, 1))
      (1): ReLU(inplace)
      (2): Conv2d(64, 64, kernel_size=(3, 3), stride=(1, 1), padding=(1, 1))
    )
  )
  (_res_de2): _Resblock_(
    channels=64
    (filter_block): Sequential(
      (0): Conv2d(64, 64, kernel_size=(3, 3), stride=(1, 1), padding=(1, 1))
      (1): ReLU(inplace)
      (2): Conv2d(64, 64, kernel_size=(3, 3), stride=(1, 1), padding=(1, 1))
    )
  )
  (_res_de3): _Resblock_(
    channels=64
    (filter_block): Sequential(
      (0): Conv2d(64, 64, kernel_size=(3, 3), stride=(1, 1), padding=(1, 1))
      (1): ReLU(inplace)
      (2): Conv2d(64, 64, kernel_size=(3, 3), stride=(1, 1), padding=(1, 1))
    )
  )
  (_conv_de2): Conv2d(64, 64, kernel_size=(3, 3), stride=(1, 1), padding=(1, 1))
  (_upscaling): Sequential(
    (0): Conv2d(64, 256, kernel_size=(3, 3), stride=(1, 1), padding=(1, 1))
    (1): PixelShuffle(upscale_factor=2)
    (2): Conv2d(64, 3, kernel_size=(3, 3), stride=(1, 1), padding=(1, 1))
  )
)
... successfully built model module !
Machine: Tesla K40c
xxxxxxxxxxxxxxxxxxxxxxxxxxxxxxxxxxxxxxxxxxxxxxxxxx
Validating model ...

URBAN100x2

SET5x2

SET14x2

BSDS100x2
