Building model module ...
... successfully built checkpoint module !
Building loss module ...
... adding L1 loss with weight=10.000000 and input type=HR
... adding L1 loss with weight=1.000000 and input type=LR
... successfully built loss module !
Building model module ...
AETAD(
  (_downscaling): Sequential(
    (0): Conv2d(3, 8, kernel_size=(3, 3), stride=(1, 1), padding=(1, 1))
    (1): Conv2d(8, 16, kernel_size=(3, 3), stride=(1, 1), padding=(1, 1))
    (2): _ReversePixelShuffle_(downscale_factor=2)
  )
  (_res_en1): _Resblock_(
    channels=64
    (filter_block): Sequential(
      (0): Conv2d(64, 64, kernel_size=(3, 3), stride=(1, 1), padding=(1, 1))
      (1): ReLU(inplace)
      (2): Conv2d(64, 64, kernel_size=(3, 3), stride=(1, 1), padding=(1, 1))
    )
  )
  (_res_en2): _Resblock_(
    channels=64
    (filter_block): Sequential(
      (0): Conv2d(64, 64, kernel_size=(3, 3), stride=(1, 1), padding=(1, 1))
      (1): ReLU(inplace)
      (2): Conv2d(64, 64, kernel_size=(3, 3), stride=(1, 1), padding=(1, 1))
    )
  )
  (_res_en3): _Resblock_(
    channels=64
    (filter_block): Sequential(
      (0): Conv2d(64, 64, kernel_size=(3, 3), stride=(1, 1), padding=(1, 1))
      (1): ReLU(inplace)
      (2): Conv2d(64, 64, kernel_size=(3, 3), stride=(1, 1), padding=(1, 1))
    )
  )
  (_conv_en1): Conv2d(64, 64, kernel_size=(3, 3), stride=(1, 1), padding=(1, 1))
  (_conv_en2): Conv2d(64, 3, kernel_size=(3, 3), stride=(1, 1), padding=(1, 1))
  (_conv_de1): Conv2d(3, 64, kernel_size=(3, 3), stride=(1, 1), padding=(1, 1))
  (_res_de1): _Resblock_(
    channels=64
    (filter_block): Sequential(
      (0): Conv2d(64, 64, kernel_size=(3, 3), stride=(1, 1), padding=(1, 1))
      (1): ReLU(inplace)
      (2): Conv2d(64, 64, kernel_size=(3, 3), stride=(1, 1), padding=(1, 1))
    )
  )
  (_res_de2): _Resblock_(
    channels=64
    (filter_block): Sequential(
      (0): Conv2d(64, 64, kernel_size=(3, 3), stride=(1, 1), padding=(1, 1))
      (1): ReLU(inplace)
      (2): Conv2d(64, 64, kernel_size=(3, 3), stride=(1, 1), padding=(1, 1))
    )
  )
  (_res_de3): _Resblock_(
    channels=64
    (filter_block): Sequential(
      (0): Conv2d(64, 64, kernel_size=(3, 3), stride=(1, 1), padding=(1, 1))
      (1): ReLU(inplace)
      (2): Conv2d(64, 64, kernel_size=(3, 3), stride=(1, 1), padding=(1, 1))
    )
  )
  (_conv_de2): Conv2d(64, 64, kernel_size=(3, 3), stride=(1, 1), padding=(1, 1))
  (_upscaling): Sequential(
    (0): Conv2d(64, 256, kernel_size=(3, 3), stride=(1, 1), padding=(1, 1))
    (1): PixelShuffle(upscale_factor=2)
    (2): Conv2d(64, 3, kernel_size=(3, 3), stride=(1, 1), padding=(1, 1))
  )
)
... successfully built model AETAD!
Machine: GeForce GTX TITAN X

[Epoch 1]	Learning rate: 0.001	Finetuning: False	 Scale: x4
[320/699]	[HR-L1: 2.9682][LR-L1: 0.1036][TOTAL: 3.0718]	1.9+25.6s
[640/699]	[HR-L1: 2.0397][LR-L1: 0.0677][TOTAL: 2.1075]	1.5+23.8s

Testing 1 (saving_results=False) ...
SHRT	[DIV2K x4]	PSNR: 26.692 (Best: 26.692 @epoch 1)
…
