Building model module ...
Continue from epoch 0...
... successfully built checkpoint module !
Building loss module ...
... adding MSE loss with weight=10.000000 and input type=HR
... adding L1 loss with weight=1.000000 and input type=LR
... successfully built loss module !
Building model module ...
AETAD_3D(
  (_downscaling): Sequential(
    (0): Conv2d(3, 8, kernel_size=(3, 3), stride=(1, 1), padding=(1, 1))
    (1): Conv2d(8, 16, kernel_size=(3, 3), stride=(1, 1), padding=(1, 1))
    (2): _ReversePixelShuffle_(downscale_factor=2)
  )
  (_res_en1): _Resblock_(
    channels=64
    (filter_block): Sequential(
      (0): Conv2d(64, 64, kernel_size=(3, 3), stride=(1, 1), padding=(1, 1))
      (1): ReLU(inplace)
      (2): Conv2d(64, 64, kernel_size=(3, 3), stride=(1, 1), padding=(1, 1))
    )
  )
  (_res_en2): _Resblock_(
    channels=64
    (filter_block): Sequential(
      (0): Conv2d(64, 64, kernel_size=(3, 3), stride=(1, 1), padding=(1, 1))
      (1): ReLU(inplace)
      (2): Conv2d(64, 64, kernel_size=(3, 3), stride=(1, 1), padding=(1, 1))
    )
  )
  (_res_en3): _Resblock_(
    channels=64
    (filter_block): Sequential(
      (0): Conv2d(64, 64, kernel_size=(3, 3), stride=(1, 1), padding=(1, 1))
      (1): ReLU(inplace)
      (2): Conv2d(64, 64, kernel_size=(3, 3), stride=(1, 1), padding=(1, 1))
    )
  )
  (_conv_en1): Conv2d(64, 64, kernel_size=(3, 3), stride=(1, 1), padding=(1, 1))
  (_conv_en2): Conv2d(64, 3, kernel_size=(3, 3), stride=(1, 1), padding=(1, 1))
  (_conv_de1): Conv2d(3, 64, kernel_size=(3, 3), stride=(1, 1), padding=(1, 1))
  (_res_de1): _Resblock_(
    channels=64
    (filter_block): Sequential(
      (0): Conv2d(64, 64, kernel_size=(3, 3), stride=(1, 1), padding=(1, 1))
      (1): ReLU(inplace)
      (2): Conv2d(64, 64, kernel_size=(3, 3), stride=(1, 1), padding=(1, 1))
    )
  )
  (_res_de2): _Resblock_(
    channels=64
    (filter_block): Sequential(
      (0): Conv2d(64, 64, kernel_size=(3, 3), stride=(1, 1), padding=(1, 1))
      (1): ReLU(inplace)
      (2): Conv2d(64, 64, kernel_size=(3, 3), stride=(1, 1), padding=(1, 1))
    )
  )
  (_res_de3): _Resblock_(
    channels=64
    (filter_block): Sequential(
      (0): Conv2d(64, 64, kernel_size=(3, 3), stride=(1, 1), padding=(1, 1))
      (1): ReLU(inplace)
      (2): Conv2d(64, 64, kernel_size=(3, 3), stride=(1, 1), padding=(1, 1))
    )
  )
  (_conv_de2): Conv2d(64, 64, kernel_size=(3, 3), stride=(1, 1), padding=(1, 1))
  (_upscaling): Sequential(
    (0): Conv2d(64, 256, kernel_size=(3, 3), stride=(1, 1), padding=(1, 1))
    (1): PixelShuffle(upscale_factor=2)
    (2): Conv2d(64, 3, kernel_size=(3, 3), stride=(1, 1), padding=(1, 1))
  )
)
... successfully built model module !
Machine: Tesla K40c
[Epoch 1]	Learning rate: 0.001

Evaluation 1 (saving_results=False) ...

LR	[DIV2K x2]	PSNR: 30.994 (Best: 30.994 @epoch 1)
HR	[DIV2K x2]	PSNR: 10.543 (Best: 10.543 @epoch 1)
Mean network applying time: 3.67ms
Saving states ...
Testing Total: 16.97s

[Epoch 2]	Learning rate: 0.001
…
